medical_cancer_severity_model.pth (torch, 65180 bytes, 19 tensors)

fc1.weight f4 [128, 22]
0.0025645958 0.010318836 0.02927127 -0.012121684 1.6135511 -0.31065422 0.03220421 0.029265251
0.18675032 -0.25660625 -0.056502108 -0.39437467 -0.028546656 0.09181549 -0.007196873 -0.012927899
-0.21271311 -0.30459982 0.0026559285 -0.017363787 -0.027877366 -0.9191076 0.0492059 0.12311769
0.15112855 0.20303437 -0.6950998 0.43677166 0.03510036 0.029181235 0.08956258 -0.21320294
-0.15026537 0.028718079 0.5275372 0.032868057 -0.25736114 0.119586304 0.07329142 0.18717133
-0.45345694 -0.15825167 -0.08028775 0.09629527 0.01266335 0.017473591 0.12539667 -0.024334196
0.7837806 0.07615778 -0.3361919 -0.07256668 0.47468224 -0.5514044 -0.13880204 -0.20274055
0.11300741 0.10091899 -0.24241516 -0.073553704 -0.20137464 0.28357315 -0.12928386 -0.1601732
-0.020235365 -0.40061158 0.0050290483 0.042429246 0.028063172 0.017394137 1.830995 0.36824134
-0.12620816 -0.016562164 0.016786572 -0.27189454 -0.0145786395 -0.26231974 0.040865745 0.04206869
-0.009132481 0.002987102 -0.05120772 0.08167762 -0.056920357 -0.011830177 0.03500453 -0.51245415
0.09872835 0.026227191 0.025609251 0.034980264 -0.031773914 -0.5089921 -0.07509958 0.03575667
0.01642369 -0.5241827 -0.20224145 -0.39076063 -0.09224262 0.15596895 -0.021875031 -0.0069069876
0.07058585 -0.7002259 0.11009026 -0.02419993 0.0075098425 -0.5083649 -0.037476256 -0.0056582396
-0.008373398 0.022302188 -0.5197386 -0.25899747 0.046477865 0.018755978 0.099724546 -0.5623799
-0.30686876 -0.23615953 -0.027477521 -0.04408793 -0.030524448 -0.04206886 0.30485842 -0.6621154
0.071544215 0.011573885 -0.016936814 -0.41903543 0.20626575 -0.017296134 -0.5334688 0.032965086
0.23314393 0.5022729 -0.37902984 -0.01900503 -0.1827368 -0.54095525 0.13043645 -0.1262314
-0.43065095 -0.05782962 -0.016476981 0.17236781 0.6253244 0.057420257 0.070990264 0.2583219
-0.17304787 0.73661023 0.024369154 0.23624997 -0.18515207 0.047048707 1.0466307 0.41495365
-0.011829013 0.12066694 0.11973811 -0.16003434 -0.021065695 0.19159314 -0.3969433 0.00127621
0.09004723 -0.06957845 0.059436284 0.22766782 0.015108506 0.07258503 -0.093047984 -0.01947567
0.0062276325 0.01727639 -0.25175208 0.07223502 0.625591 0.42358053 0.109712966 -0.097371876
-0.059728574 -0.24771449 -0.019993482 0.037298813 -0.10559708 0.109645024 -0.12665951 -0.05966177
0.9917183 -0.24045676 -0.32582614 0.08578081 -0.05511493 1.0368687 -0.118827224 -0.052089445
-0.054343082 -0.07593526 -0.42972702 -0.21930131 -0.015849132 -0.32989758 0.22170988 -0.31333297
0.09624598 -0.36402443 -0.015983041 -0.07896628 0.019436408 -0.03812934 -0.2910181 -0.8036028
0.107593425 -0.015703488 0.10431864 -0.31047478 0.075787134 -0.065573215 -0.024671638 0.020178534
-1.3734107 -0.11279255 -0.04553228 -0.013849003 -0.024881667 -0.3663427 -0.14296943 0.018021388
-0.07015542 -0.077167965 -0.044507854 0.12794447 0.08897533 0.34325102 0.018581958 0.057926603
-0.009982567 -0.14137335 0.1302005 -0.060616847 0.021733921 -0.05279071 -0.1648373 -0.512127
0.3305876 0.02999912 -0.29192454 0.5835717 -0.11064047 0.09684843 -0.09335654 -0.17313933
00000000: c712 283b 5610 293c 4dca ef3c 079a 46bc
00000010: d888 ce3f 120e 9fbe 90e8 033d aebd ef3c
00000020: 7a3b 3f3e e561 83be c16e 67bd 7aeb c9be
00000030: adda e9bc c209 bc3d bfd3 ebbb 8acf 53bc
00000040: 77d1 59be 82f4 9bbe 160f 2e3b 803e 8ebc
00000050: 135f e4bc a34a 6bbf 208c 493d 2125 fc3d
00000060: 71c1 1a3e 3ee8 4f3e 0ff2 31bf 89a0 df3e
00000070: 65c5 0f3d 7c0d ef3c 966c b73d df51 5abe
00000080: 2adf 19be 2d42 eb3c ae0c 073f a8a0 063d
00000090: d7c4 83be aae9 f43d d019 963d d7a9 3f3e
000000a0: 822b e8be ba0c 22be e76d a4bd 7436 c53d
000000b0: f179 4f3c c724 8f3c fc67 003e 8258 c7bc
000000c0: d8a5 483f 9cf8 9b3d 5821 acbe d79d 94bd
000000d0: 8d09 f33e d728 0dbf 1f22 0ebe 389b 4fbe
000000e0: 6e70 e73d 9eae ce3d ae3b 78be 53a3 96bd
000000f0: 2735 4ebe 8030 913e fd62 04be 7104 24be
00000100: a3c4 a5bc f61c cdbe b7ca a43b 4aca 2d3d
00000110: bde4 e53c 267e 8e3c 0b5e ea3f 218a bc3e
00000120: b63c 01be 60ad 87bc fe83 893c c335 8bbe
00000130: 3fdb 6ebc c64e 86be d762 273d 3850 2c3d
00000140: 67a0 15bc 41c3 433b 30bf 51bd 9946 a73d
00000150: 5225 69bd 5cd3 41bc e960 0f3d 3230 03bf
00000160: 1732 ca3d 68da d63c 7eca d13c 7747 0f3d
00000170: 5d25 02bd 4e4d 02bf cfcd 99bd 9675 123d
00000180: f98a 863c d630 06bf 6218 4fbe c711 c8be
00000190: b3e9 bcbd 53b6 1f3e 4433 b3bc 0354 e2bb
000001a0: 508f 903d 0142 33bf 0177 e13d ee3e c6bc
000001b0: 2015 f63b 3424 02bf b480 19bd c168 b9bb
000001c0: 9430 09bc 14b3 b63c 970d 05bf 519b 84be
000001d0: 935f 3e3d 23a6 993c 623c cc3d 21f8 0fbf
000001e0: e71d 9dbe ced3 71be 8a18 e1bc 8c95 34bd
000001f0: 680e fabc 6650 2cbd 6716 9c3e 6580 29bf
00000200: c685 923d 64a0 3d3c 13bf 8abc d08b d6be
00000210: 5437 533e 9fb0 8dbc 6991 08bf 6606 073d
00000220: 48bd 6e3e f594 003f 3310 c2be 70b0 9bbc
00000230: 5b1f 3bbe 0b7c 0abf 2291 053e ce42 01be
00000240: 487e dcbe c0de 6cbd bcfa 86bc 3081 303e
00000250: 4315 203f 8131 6b3d 5863 913d c542 843e
00000260: 7633 31be 7d92 3c3f d2a1 c73c 83eb 713e
00000270: 8198 3dbe 25b6 403d fff7 853f ce74 d43e
00000280: 7ace 41bc 3b20 f73d 4139 f53d 0be0 23be
00000290: f791 acbc fe30 443e 273c cbbe 8046 a73a
000002a0: af6a b83d 257f 8ebd 7673 733d c121 693e
000002b0: ab89 773c 76a7 943d f18f bebd 718b 9fbc
000002c0: 2b11 cc3b 3787 8d3c a6e5 80be f4ef 933d
000002d0: bb26 203f 8cdf d83e 31b1 e03d e86a c7bd
000002e0: f3a5 74bd dea8 7dbe 5fc9 a3bc a4c6 183d
000002f0: 4843 d8bd 928d e03d 08b3 01be e65f 74bd
00000300: 40e1 7d3f 4c3a 76be afd2 a6be d9ad af3d
00000310: 31c0 61bd 1db8 843f b05b f3bd be5b 55bd
00000320: da96 5ebd f283 9bbd 2e05 dcbe 8690 60be
00000330: 0ad6 81bc 56e8 a8be ea07 633e 2e6d a0be
00000340: 9d1c c53d 6961 babe deee 82bc 13b9 a1bd
00000350: 1a39 9f3c 832d 1cbd 5300 95be eab8 4dbf
00000360: f159 dc3d 9aa4 80bc 03a5 d53d 8df6 9ebe
00000370: 4936 9b3d 404b 86bd 2d1c cabc 744d a53c
00000380: eccb afbf c8ff e6bd 0e80 3abd eee6 62bc
00000390: a3d4 cbbc 4591 bbbe 9466 12be 97a1 933c
000003a0: a5ad 8fbd 3d0a 9ebd de4d 36bd e003 033e
000003b0: b338 b63d 99be af3e 3139 983c 7244 6d3d
000003c0: ec8d 23bc 2dc4 10be 4853 053e 5f49 78bd
000003d0: 560b b23c 123b 58bd 1ccb 28be c11a 03bf
000003e0: c742 a93e b7c0 f53c 2277 95be f464 153f
000003f0: 7997 e2bd 7858 c63d b731 bfbd 704b 31be

fc1.bias f4 [128]
-0.00076157483 -0.00020978488 -0.0011463341 -0.0014944068 -0.0015983301 -0.009238293 -0.00086159364 -0.0025222963
0.0015231804 0.004521616 0.0027450612 -0.001992422 0.00015831726 -0.0005008243 0.0036751705 0.0025856653
0.0022056727 -0.0030039758 0.0052907844 0.00021960665 0.0021434992 0.0013155454 0.0033225876 0.007760025
0.0002117367 0.010325735 -0.005140877 6.578388e-05 -0.00039167868 -0.0022330107 0.00086254417 0.004043011
-0.009629854 -0.00026445455 0.0033524274 -0.008499959 -0.002056252 0.006629322 -0.0022170884 -0.0019939574
0.00035350356 0.0032161176 -6.568077e-05 0.000518146 0.0021130517 -0.0015032298 0.004720177 -6.682474e-05
0.0027575092 0.0023408628 -0.0005258762 -0.0023550624 7.504341e-05 0.00028214662 -0.00087904854 -0.0010371353
-0.0017738012 -0.012924625 0.0009244879 0.0006261269 -0.0021963674 -0.0025939588 -0.0017412808 -0.00013122922
-0.0003281479 0.0016038463 -0.0004866929 0.002153925 0.005024002 0.0005721592 -0.005798256 -0.0016888776
-1.8771469e-05 -0.0013719889 -0.0012733187 -0.0022816705 0.003883814 6.554892e-05 0.0005041816 0.0013508712
-0.00030223976 -0.005337593 -0.00042376277 -0.00076320715 0.000987764 -0.0016229273 -0.0011573739 0.0005676675
0.0011760746 -0.0010787272 -0.00036540724 0.00034571683 0.0004789227 0.0003984764 -0.0003235438 -0.0034256412
0.011214746 0.0027011933 -0.00073454663 0.023389788 -0.0005915287 1.6356262e-05 -0.006256365 0.0012466641
0.003868744 -0.0068670395 0.00013735749 -0.004171854 0.009765012 -0.00088739535 -0.00011561123 0.00075216184
-0.0014615016 0.0019848447 0.0009822174 0.0006233283 -0.0030891309 0.0032012728 -0.0004000802 -0.0041486537
-0.0046904306 -0.0004414647 -0.0002683153 0.0012038079 0.004570516 -0.0008550472 9.482233e-05 0.0007245971
00000000: 6ca4 47ba b3f9 5bb9 9740 96ba f9df c3ba
00000010: 0f7f d1ba 365c 17bc 92dc 61ba 1c4d 25bb
00000020: 74a5 c73a 102a 943b 7ce6 333b 4b93 02bb
00000030: f701 2639 c049 03ba 21db 703b 4474 293b
00000040: 0c8d 103b 5ade 44bb 515e ad3b 3646 6639
00000050: f379 0c3b 616e ac3a c5bf 593b cf47 fe3b
00000060: a305 5e39 462d 293c cd74 a8bb 74f5 8938
00000070: 395a cdb9 b457 12bb 5c1c 623a 3c7b 843b
00000080: 89c6 1dbc 7da6 8ab9 66b4 5b3b 6943 0bbc
00000090: 2fc2 06bb c93a d93b 924c 11bb 0ead 02bb
000000a0: 7256 b939 80c5 523b 18be 89b8 30d4 073a
000000b0: 207b 0a3b 0608 c5ba b7ab 9a3b 4224 8cb8
000000c0: 54b7 343b 2969 193b f4da 09ba 6457 1abb
000000d0: a060 9d38 14ed 9339 f36f 66ba 7cf0 87ba
000000e0: e47e e8ba cec1 53bc 5559 723a aa22 243a
000000f0: eef0 0fbb 68ff 29bb b03b e4ba 939a 09b9
00000100: 440b acb9 2738 d23a d12a ffb9 dd28 0d3b
00000110: 62a0 a43b f4fc 153a 4cff bdbb 545d ddba
00000120: 6c77 9db7 4fd4 b3ba 7ce5 a6ba 1488 15bb
00000130: 9687 7e3b 4f77 8938 0e2b 043a b70f b13a
00000140: ef75 9eb9 fae6 aebb 7a2c deb9 f711 48ba
00000150: dc77 813a 67b8 d4ba 06b3 97ba 85cf 143a
00000160: 8426 9a3a 1464 8dba 2194 bfb9 5441 b539
00000170: eb17 fb39 99ea d039 50a1 a9b9 b980 60bb
00000180: 0ebe 373c 8106 313b 978e 40ba f19b bf3c
00000190: d210 1bba ce34 8937 3202 cdbb 1b67 a33a
000001a0: c18a 7d3b e704 e1bb 9f07 1039 0cb4 88bb
000001b0: 6efd 1f3c 18a0 68ba 4e74 f2b8 ba2c 453a
000001c0: db8f bfba 2b14 023b bfbd 803a db66 233a
000001d0: 0473 4abb 72cc 513b dbc1 d1b9 6ef1 87bb
000001e0: 2fb2 99bb 6474 e7b9 acac 8cb9 17c9 9d3a
000001f0: 44c4 953b 3f25 60ba 5adb c638 e3f2 3d3a

bn1.weight f4 [128]
1.2821736 0.71907574 0.6810272 1.2893351 0.99018836 1.1645042 0.7184779 0.6889026
1.3423228 0.8511778 0.57684714 0.8588754 0.8505677 0.8714523 0.841934 0.72347534
0.712983 0.98288167 1.4024962 0.7850844 0.8797659 0.7855044 0.7668676 1.03642
0.7597055 1.183694 1.108297 0.66637063 0.6320451 1.3120259 0.9000094 0.7641603
1.2144591 1.4038625 0.8754099 1.0431217 0.77690387 1.3126698 0.9588819 0.7185932
1.1642038 1.1152699 0.81694466 0.8776592 1.3091553 1.1833878 0.92798495 0.887521
0.75616467 0.7524021 0.9679259 0.9546923 0.5286313 0.8330801 0.8384742 0.87339234
1.0609689 1.3381447 0.7898736 0.83780485 0.88251215 0.7725923 0.8228301 0.6646835
0.74906987 1.1918496 0.83280367 0.9250513 0.80447274 1.271988 1.0992875 1.1275394
0.83234423 0.6223943 1.069839 0.8548909 0.8038036 0.8685037 0.7564762 1.0526063
0.77033246 1.3716924 1.1115685 0.83192855 1.1476414 1.0543059 0.62411964 0.6117049
1.1717016 1.1549453 0.7542286 0.81541044 0.883384 0.85168207 0.8228904 0.77635956
1.3875097 0.8469017 1.0421094 1.3417372 0.5646379 0.8025567 1.2940087 0.76135814
1.2897127 1.3910795 0.79769397 1.0224493 1.3369712 0.93859434 1.0883899 0.75241977
0.9908654 0.7584116 0.96759075 0.80190545 1.1277155 0.8981412 0.829912 0.9842197
0.7993622 0.66532874 0.7161363 0.93565226 0.7796381 1.003273 0.7279098 0.60801303
00000000: 441e a43f 5915 383f cc57 2e3f ef08 a53f
00000010: fc7c 7d3f 790e 953f 2bee 373f ec5b 303f
00000020: 3cd1 ab3f cae6 593f 41ac 133f 42df 5b3f
00000030: cebe 593f 7f17 5f3f fd88 573f ae35 393f
00000040: 0e86 363f 229e 7b3f ff84 b33f 4bfb 483f
00000050: 5738 613f d116 493f 6f51 443f 69a9 843f
00000060: 0f7c 423f 4983 973f addc 8d3f 4497 2a3f
00000070: b5cd 213f 77f0 a73f 0467 663f 02a0 433f
00000080: 6573 9b3f c4b1 b33f dd1a 603f 0385 853f
00000090: 2ce3 463f 9005 a83f 4979 753f b9f5 373f
000000a0: a104 953f 2ac1 8e3f 4923 513f 46ae 603f
000000b0: 6792 a73f 4079 973f 6c90 6d3f 9434 633f
000000c0: 0294 413f 6d9d 403f fec9 773f b766 743f
000000d0: 6254 073f bd44 553f 3fa6 563f a496 5f3f
000000e0: d4cd 873f 5348 ab3f 2835 4a3f 617a 563f
000000f0: 51ec 613f 9cc8 453f fea4 523f b328 2a3f
00000100: 0bc3 3f3f 878e 983f 9f32 553f 29d0 6c3f
00000110: edf1 4d3f 81d0 a23f 74b5 8c3f 3653 903f
00000120: 8314 553f 3c55 1f3f 7cf0 883f 21da 5a3f
00000130: 13c6 4d3f 4256 5e3f 6da8 413f cebb 863f
00000140: 8234 453f 9e93 af3f e047 8e3f 45f9 543f
00000150: eae5 923f 7ff3 863f 4ec6 1f3f b198 1c3f
00000160: 51fa 953f 3fd5 933f 2015 413f bdbe 503f
00000170: 7425 623f d607 5a3f f2a8 523f 80bf 463f
00000180: eb99 b13f 8dce 583f d763 853f 0bbe ab3f
00000190: 1c8c 103f 5b74 4d3f 14a2 a53f 5ee8 423f
000001a0: 4e15 a53f e50e b23f ac35 4c3f 9edf 823f
000001b0: df21 ab3f b847 703f 5c50 8b3f 959e 403f
000001c0: 5ba9 7d3f 4327 423f 07b4 773f ad49 4d3f
000001d0: fb58 903f 95ec 653f 1d75 543f d2f5 7b3f
000001e0: 00a3 4c3f fc52 2a3f b554 373f e886 6f3f
000001f0: 5d96 473f 406b 803f 4c58 3a3f bea6 1b3f

bn1.bias f4 [128]
-0.51435024 -0.39051318 -0.36077765 -1.0063193 -0.3953346 0.12894845 -0.3653461 -0.34913546
-0.09720901 -0.18018244 -0.29998672 -0.37415805 -0.4861399 -0.66756105 -0.34143177 0.09837264
-0.29902393 0.02339137 -0.4792078 -0.57227486 -0.22272602 0.039021008 -0.54125637 0.24577667
-0.4495884 -0.86615294 -0.4417893 -0.47158438 -0.17281497 0.08865337 -0.3396978 -0.52650315
-0.35094297 -0.5978304 -0.38792485 0.021097705 -0.329061 -0.55812234 -0.35264286 -0.4690172
-0.58623713 0.2736827 -0.45964327 -0.49349478 -0.45152253 0.04103167 -0.71060145 -0.084735096
-0.48576733 -0.45874286 0.04714105 -0.42177802 -0.33466932 0.15124427 -0.4788724 -0.42780408
-0.10599059 -0.4169862 -0.6789485 -0.29142278 -0.6772503 -0.4804911 -0.51141804 0.018604469
-0.5681773 0.022533242 -0.18092997 -0.5176963 -0.5711145 -0.29921606 -0.7537915 -0.35503653
-0.4089643 -0.4989704 -0.20077492 -0.44534 -0.15108764 -0.57415587 -0.37968785 -0.3467155
-0.48805016 -0.43771696 -0.25539133 -0.4935743 -0.10121169 -1.0536612 -0.23040871 -0.20176034
-0.126921 -0.28069812 -0.3092022 -0.31630766 -0.1609046 -0.5521926 -0.30544814 -0.13286422
-0.45678082 -0.5328908 0.16407157 -0.5440823 -0.40649518 -0.51409703 -0.449677 -0.56247556
0.0716191 -0.48546794 -0.41137108 -0.4402316 -0.56595343 -0.006048875 0.44763476 -0.2622977
-0.09801466 -0.14698139 -0.61986774 -0.7024899 -0.25208256 0.13039549 -0.14655384 -0.16716029
-0.38940153 -0.20441744 -0.3120697 -0.46567553 -0.14463504 -0.2079044 -0.4557567 -0.44040376
00000000: 75ac 03bf 58f1 c7be d9b7 b8be 12cf 80bf
00000010: 4c69 cabe 100b 043e a50e bbbe e2c1 b2be
00000020: 8415 c7bd bf81 38be dc97 99be a591 bfbe
00000030: 54e7 f8be 48e5 2abf 25d0 aebe 9877 c93d
00000040: aa19 99be 429f bf3c ba5a f5be 9b80 12bf
00000050: 4a12 64be 7ed4 1f3d c78f 0abf e1ac 7b3e
00000060: 7330 e6be 33bc 5dbf 3532 e2be 8273 f1be
00000070: 68f6 30be e68f b53d dfec adbe e9c8 06bf
00000080: ccae b3be 6a0b 19bf 169e c6be 18d5 ac3c
00000090: af7a a8be 1be1 0ebf 9b8d b4be 0623 f0be
000000a0: a313 16bf 2420 8c3e 5d56 ebbe 59ab fcbe
000000b0: f62d e7be d310 283d fae9 35bf 9889 adbd
000000c0: 7fb6 f8be 58e0 eabe f916 413d 4af3 d7be
000000d0: c759 abbe c7df 1a3e c32e f5be 2309 dbbe
000000e0: 9811 d9bd 377f d5be 92cf 2dbf 5e35 95be
000000f0: 4760 2dbf ee02 f6be 4bec 02bf 6668 983c
00000100: 1174 11bf a297 b83c b545 39be bf87 04bf
00000110: 8f34 12bf d932 99be 7bf8 40bf 59c7 b5be
00000120: c563 d1be 0c79 ffbe f197 4dbe 9b03 e4be
00000130: b8b6 1abe e1fb 12bf 7266 c2be b284 b1be
00000140: b6e1 f9be 701c e0be a7c2 82be c5b5 fcbe
00000150: 1348 cfbd 5fde 86bf 43f0 6bbe 439a 4ebe
00000160: 94f7 01be aab7 8fbe c04f 9ebe 14f3 a1be
00000170: 2dc4 24be 7f5c 0dbf b363 9cbe 8f0d 08be
00000180: 2ddf e9be 886b 08bf 6102 283e fa48 0bbf
00000190: 2320 d0be dd9b 03bf 103c e6be 66fe 0fbf
000001a0: 09ad 923d 418f f8be 3b9f d2be 0966 e1be
000001b0: 53e2 10bf a435 c6bb 6230 e53e e24b 86be
000001c0: e9bb c8bd 4a82 16be a7af 1ebf 61d6 33bf
000001d0: f710 81be 6586 053e 3612 16be 112c 2bbe
000001e0: a35f c7be ce52 51be 9ac7 9fbe 066d eebe
000001f0: 351b 14be e4e4 54be f158 e9be 9a7c e1be

bn1.running_mean f4 [128]
-1.1218722 2.2382371 -0.050521113 1.3644024 -3.5782194 -3.1535838 -0.80753726 2.4836347
1.6801248 -4.2119308 -2.2479496 0.69838405 -2.710659 3.25079 5.0363092 2.6722043
2.719882 -3.810788 -3.480757 -1.4871083 -0.99483144 -3.741431 1.0450401 -0.87807083
0.18633968 2.4232342 -3.4898593 2.2331114 0.9470536 -0.5394867 4.9172707 2.0292814
-2.807503 -3.3720932 -0.5166776 -2.717064 -0.14112039 -3.1815312 0.77821374 0.012040914
-1.2181196 -1.8121375 2.5262449 2.467984 -2.6401763 -0.7818947 2.0286849 5.049443
-3.1257477 -0.6235 -0.258681 2.2386253 2.581055 -0.59013844 -3.5475252 1.6325179
-2.5402727 -3.1696968 1.1297072 0.31985408 2.4938905 4.027729 2.7568436 1.6194824
-2.7177145 -1.5455211 3.2036622 2.1431057 -0.78763026 -2.2689085 1.2124398 -0.8786828
0.91470855 0.44861332 -1.394239 1.798873 2.77582 0.8341858 1.0171574 1.8524992
2.0521476 -3.3405004 1.2928581 2.7687635 -3.0755668 2.235681 -1.0707504 -1.2251613
-1.9284865 -3.6113768 0.9125159 0.95055145 -1.5427012 3.614712 -0.8196329 2.4815063
-2.7978625 -1.7579962 -1.8628669 -2.9054387 1.1538059 0.88938034 -3.1141207 2.0069518
-0.16475612 -2.8933485 1.3447855 5.8473787 -3.9395769 0.16061619 -0.44785705 0.9070628
-1.5922866 3.8557963 1.0806907 0.804216 -3.0451088 -2.2841508 3.1761782 -3.7736444
2.4263043 3.1315105 -0.42856777 0.25343898 2.8116274 -0.7745415 1.8962342 1.5675293
00000000: 8299 8fbf 473f 0f40 3aef 4ebd bda4 ae3f
00000010: 8c01 65c0 51d4 49c0 c3ba 4ebf dff3 1e40
00000020: 540e d73f 23c8 86c0 68de 0fc0 4cc9 323f
00000030: 707b 2dc0 f20c 5040 7229 a140 6505 2b40
00000040: 8c12 2e40 f3e3 73c0 b9c4 5ec0 9159 bebf
00000050: 46ad 7ebf 9b73 6fc0 e0c3 853f 40c9 60bf
00000060: d4cf 3e3e 4516 1b40 db59 5fc0 4ceb 0e40
00000070: 1b72 723f cd1b 0abf 485a 9d40 bfdf 0140
00000080: 21ae 33c0 60d0 57c0 fc44 04bf 60e4 2dc0
00000090: dd81 10be 359e 4bc0 0439 473f 4147 453c
000000a0: 58eb 9bbf 1ff4 e7bf ffad 2140 73f3 1d40
000000b0: a6f8 28c0 402a 48bf f9d5 0140 0995 a140
000000c0: 400c 48c0 b29d 1fbf d671 84be a345 0f40
000000d0: 0130 2540 5013 17bf a70a 63c0 59f6 d03f
000000e0: d493 22c0 50dc 4ac0 3f9a 903f eac3 a33e
000000f0: e79b 1f40 28e3 8040 2070 3040 334b cf3f
00000100: 09ef 2dc0 a3d3 c5bf cd08 4d40 a528 0940
00000110: 23a2 49bf cc35 11c0 3a31 9b3f 5bf1 60bf
00000120: 572a 6a3f a5b0 e53e 6c76 b2bf 7841 e63f
00000130: 09a7 3140 338d 553f 3732 823f b21e ed3f
00000140: 6356 0340 c2ca 55c0 607c a53f 6c33 3140
00000150: 16d6 44c0 6615 0f40 590e 89bf 16d2 9cbf
00000160: a5d8 f6bf cc20 67c0 a49a 693f 5757 733f
00000170: 3c77 c5bf 7157 6740 76d3 51bf 00d1 1e40
00000180: 2e10 33c0 0506 e1bf 6c72 eebf b5f2 39c0
00000190: e9af 933f 6eae 633f c14d 47c0 e671 0040
000001a0: d4b5 28be 9f2c 39c0 ee21 ac3f ba1d bb40
000001b0: 0722 7cc0 9278 243e 854d e5be 4535 683f
000001c0: 0cd0 cbbf 5ec5 7640 1354 8a3f 1ae1 4d3f
000001d0: 10e3 42c0 872f 12c0 8146 4b40 6483 71c0
000001e0: 9248 1b40 ab6a 4840 3c6d dbbe c1c2 813e
000001f0: b4f1 3340 5a48 46bf cdb7 f23f cda4 c83f

bn1.running_var f4 [128]
0.59043103 0.46807203 0.4054451 0.75909805 0.1901498 0.3378849 1.0538434 0.6209779
0.69451326 0.6215291 0.55721384 0.50532997 0.26787823 0.48819116 1.0209055 0.55548066
0.33276907 0.18941236 1.4444572 0.78642565 0.59556556 0.40369633 0.35472402 0.63106436
0.81999177 1.6989452 0.5026186 2.3898098 0.7800581 0.3998736 0.65336937 1.7092793
1.3534303 1.5654893 0.1598816 0.67748547 1.4025159 1.4037466 0.5791786 0.52880096
0.36807558 0.41124785 0.83838934 0.1827675 1.5832133 0.44750825 0.6456499 0.8784436
0.66118455 0.6354945 0.33511224 0.5505803 1.0952338 0.46495456 0.4628206 0.57721186
0.6520747 1.8391018 0.8611282 0.91207176 0.72123694 0.5966987 0.43137246 0.7653743
0.45532623 0.6385882 0.34933993 0.5641082 0.33122158 0.6083473 1.7517734 0.23261599
1.4011164 1.8213755 0.59036195 0.38901237 0.56244665 1.2339648 0.5588059 0.5275918
0.46867248 2.0576832 0.46789378 0.7568784 1.5736408 0.6579746 0.34574685 0.40056714
0.45808652 0.46358624 0.6653732 0.25245288 0.5785958 0.87763387 0.6148187 0.89880764
2.0576022 0.49445766 0.62106663 1.605949 0.38060832 0.30988652 1.2713991 0.9118689
0.5688816 1.4602752 1.4464908 0.62413096 1.7970792 0.50781256 0.35079527 0.6982516
0.5360895 0.5892312 0.7722188 1.3597991 0.60748535 0.38102785 0.46188435 0.37527928
0.21290545 0.333036 1.1596141 1.1893475 0.49189466 0.43732852 0.35319003 2.8686454
00000000: 7d26 173f 23a7 ef3e 8096 cf3e 4054 423f
00000010: a1b6 423e 40ff ac3e 57e4 863f 68f8 1e3f
00000020: 9fcb 313f 881c 1f3f 91a5 0e3f 4e5d 013f
00000030: 5627 893e 31f4 f93e 08ad 823f fb33 0e3f
00000040: b560 aa3e 50f5 413e f9e3 b83f 3153 493f
00000050: fc76 183f 49b1 ce3e 639e b53e 6f8d 213f
00000060: fbea 513f 0977 d93f 9dab 003f a5f2 1840
00000070: e3b1 473f 3cbc cc3e 3743 273f aac9 da3f
00000080: 343d ad3f f461 c83f 01b8 233e b06f 2d3f
00000090: a485 b33f f8ad b33f 0c45 143f 805f 073f
000000a0: 6774 bc3e 148f d23e afa0 563f 6727 3b3e
000000b0: bca6 ca3f cd1f e53e 5049 253f aee1 603f
000000c0: 6443 293f c4af 223f d593 ab3e d5f2 0c3f
000000d0: 9f30 8c3f 860e ee3e d2f6 ec3e 28c4 133f
000000e0: 5eee 263f b067 eb3f e672 5c3f 897d 693f
000000f0: fca2 383f 3fc1 183f dadc dc3e 92ef 433f
00000100: 8520 e93e 847a 233f afdc b23e 6569 103f
00000110: e095 a93e a6bc 1b3f 1c3a e03f e332 6e3e
00000120: c857 b33f d522 e93f f621 173f a12c c73e
00000130: 81fc 0f3f 8ff2 9d3f e70d 0f3f 4210 073f
00000140: d7f5 ef3e 15b1 0340 c68f ef3e c8c2 413f
00000150: 106d c93f 0671 283f bb05 b13e 2317 cd3e
00000160: 518a ea3e 2d5b ed3e e655 2a3f 8141 813e
00000170: db1e 143f 9dac 603f c264 1d3f 4218 663f
00000180: c1af 0340 8e29 fd3e 39fe 1e3f bd8f cd3f
00000190: 18df c23e 72a9 9e3e 35bd a23f 3d70 693f
000001a0: 39a2 113f 4cea ba3f 9c26 b93f 0cc7 1f3f
000001b0: b106 e63f 0100 023f 709b b33e 9ec0 323f
000001c0: 293d 093f dbd7 163f 22b0 453f e60d ae3f
000001d0: 2984 1b3f 1516 c33e 1b7c ec3e 9b24 c03e
000001e0: e303 5a3e b283 aa3e 3c6e 943f 8a3c 983f
000001f0: 9ed9 fb3e 86e9 df3e 53d5 b43e e397 3740

fc2.weight f4 [64, 128]
-0.16282952 0.2527152 0.2461675 0.07690314 -0.21806452 -0.0005612541 -0.19883774 -0.039940175
-1.0179679 -0.12616628 0.25825018 0.13910154 -0.20156316 0.26531264 0.009393327 0.007520627
0.53689337 -0.2000601 0.009458283 0.04218545 0.071662314 -0.107203014 0.12356135 0.051683072
0.092389114 -0.04327543 -0.007667707 0.11565148 0.068018146 -0.24155523 0.28235707 0.3672996
-0.0026803578 -0.03803767 -0.16971722 -0.043050017 0.14741892 -0.025017789 0.3095723 0.43146786
-0.0025796772 -0.40306792 0.21721822 0.31189984 -0.12885883 -0.14609845 0.28981414 -0.7160712
0.34089586 -0.4053953 -0.13365847 0.07477009 0.0220252 -1.2102064 0.45317695 0.19028668
0.19730239 -0.029108478 0.25137904 0.44475755 0.12742445 0.4404891 0.2548708 0.21081008
0.26894173 0.48042405 0.2894953 -0.09206622 0.4944317 0.12856025 -0.051869616 -0.060467385
0.02222374 0.4910743 0.3335109 0.37467188 0.087393016 0.043147378 0.123233795 -0.21059118
0.17771626 -0.0869567 -0.2456451 0.045323763 -0.09346727 0.3868675 -0.026052833 -0.28116956
0.1405518 0.013072749 0.22693403 0.17484686 -0.15572539 0.10951666 -0.9569029 -0.116258405
-0.1787908 -0.47356236 0.073961236 -0.13414104 0.03703159 0.2695143 -0.09627074 -0.60649943
0.13781464 0.028057795 0.033102263 0.19318248 -0.088589065 0.25503188 -0.8526212 0.071914926
-0.1620417 0.047864214 0.07344181 -0.90128356 0.17467722 -0.9321763 0.1850285 -0.28862345
-0.19809765 0.05027881 -0.14271535 0.15350573 0.04221102 0.096745536 -0.14941286 0.13164401
-0.13605474 0.03202644 -0.31597772 0.3915521 0.1937042 0.052689537 -0.123891376 -0.39815176
-0.14907175 0.09863478 -0.013447293 -0.12978423 0.27471653 0.23203006 -0.0730822 -0.13631178
0.14902256 0.31172588 0.094933696 -0.5477865 0.19807848 0.14707428 -0.1384463 0.024243712
0.10339548 0.3553932 0.29389784 -0.3011383 0.12287837 -0.5734574 -0.1979994 0.032652363
0.120616205 0.0915984 0.11645207 0.21498165 -1.12319 0.009874819 -0.6063723 -0.6115207
-0.12427496 -0.6530533 -0.05870128 0.16825433 0.042675678 -0.78670985 0.24409902 -0.1697657
-0.009146094 0.10413176 -0.09299682 0.09888059 0.08083773 0.12767647 0.09390356 -0.6447612
0.010772891 0.1696302 0.026687043 -0.589044 -0.06172872 -0.06038323 0.07440425 -0.6901306
0.121879324 0.31694543 -0.16741899 -0.23108055 0.24985048 0.21168578 0.3898539 -0.09311327
-0.14052576 0.1557963 0.2116328 0.033766158 -0.02991081 -0.028005138 -0.13727947 -0.52732146
-0.22178935 0.18142988 -0.63390493 -0.19057362 -0.0073154094 -0.065133624 0.089054205 0.2193458
0.12814794 0.10517764 -0.32925063 -0.04890857 0.11145991 0.089261375 0.15354726 -0.23503876
-0.030654108 0.3934104 0.050554045 -0.018787676 -0.047066145 -0.47492135 -0.0712598 -0.19703667
0.09179422 -0.0994362 -0.10941432 -0.39084253 0.038179975 0.12206165 -0.43853772 -0.22252943
0.15301928 -0.53570086 -0.37063006 0.04492355 0.23037302 0.05858848 -0.5120084 0.07541227
-0.13627386 -0.114682905 -0.28663805 -0.9160128 -0.26623878 0.24669707 -0.44965008 -0.21995321
00000000: c8bc 26be e363 813e 5513 7c3e 657f 9d3d
00000010: 4e4c 5fbe 2021 13ba 1f9c 4bbe 4f98 23bd
00000020: c64c 82bf bc31 01be 5e39 843e a270 0e3e
00000030: 9366 4ebe 0fd7 873e 78e6 193c 986f f63b
00000040: d871 093f 8edc 4cbe eaf6 1a3c a7ca 2c3d
00000050: b1c3 923d 418d dbbd bc0d fd3d a1b1 533d
00000060: 8136 bd3d 9441 31bd 6341 fbbb afda ec3d
00000070: 194d 8b3d 415a 77be 1b91 903e b10e bc3e
00000080: f1a8 2fbb 63cd 1bbd 5aca 2dbe 3755 30bd
00000090: fcf4 163e 1bf2 ccbc 4380 9e3e 5be9 dc3e
000000a0: cd0f 29bb eb5e cebe 746e 5e3e 56b1 9f3e
000000b0: 92f3 03be d59a 15be 8562 943e 7150 37bf
000000c0: e789 ae3e f98f cfbe c4dd 08be 1021 993d
000000d0: 316e b43c 0be8 9abf cf06 e83e 83da 423e
000000e0: a309 4a3e e774 eebc c1b4 803e 43b7 e33e
000000f0: 8e7b 023e ca87 e13e 6d7e 823e 99de 573e
00000100: bbb2 893e 24fa f53e ba38 943e 378d bcbd
00000110: 2726 fd3e 4ca5 033e 3c75 54bd a6ac 77bd
00000120: 900e b63c 176e fb3e f1c1 aa3e fed4 bf3e
00000130: 1cfb b23d 4ebb 303d 0062 fc3d 37a5 57be
00000140: 40fb 353e 5b16 b2bd 648a 7bbe 69a5 393d
00000150: c56b bfbd 7f13 c63e c06c d5bc 75f5 8fbe
00000160: d0ec 0f3e 152f 563c 6561 683e 0e0b 333e
00000170: 7a76 1fbe 454a e03d 97f7 74bf e318 eebd
00000180: ef14 37be c476 f2be fd78 973d 455c 09be
00000190: 70ae 173d c7fd 893e 9829 c5bd 8c43 1bbf
000001a0: 481f 0d3e 76d9 e53c 3d96 073d a1d1 453e
000001b0: 2f6e b5bd 8a93 823e 6245 5abf 2248 933d
000001c0: 42ee 25be 440d 443d a968 963d 85ba 66bf
000001d0: 96de 323e 1ba3 6ebf 1c78 3d3e 74c6 93be
000001e0: 1cda 4abe 27f1 4d3d f923 12be 9b30 1d3e
000001f0: 76e5 2c3d 8622 c63d afff 18be b0cd 063e
00000200: ef51 0bbe 282e 033d d5c7 a1be 8479 c83e
00000210: 655a 463e fcd0 573d c3ba fdbd 8cda cbbe
00000220: 44a6 18be 0801 ca3d 0952 5cbc 28e6 04be
00000230: a5a7 8c3e 4a99 6d3e 1fac 95bd 5195 0bbe
00000240: 5f99 183e 899a 9f3e 996c c23d bc3b 0cbf
00000250: 16d5 4a3e a49a 163e dec4 0dbe c09a c63c
00000260: 02c1 d33d 19f6 b53e c779 963e cd2e 9abe
00000270: a8a7 fb3d 1bce 12bf 5bc0 4abe 7cbe 053d
00000280: a105 f73d f197 bb3d 6c7e ee3d 2624 5c3e
00000290: b1c4 8fbf fec9 213c 373b 1bbf 9f8c 1cbf
000002a0: df83 febd 802e 27bf c170 70bd dd4a 2c3e
000002b0: b1cc 2e3d d165 49bf 18f5 793e 0fd7 2dbe
000002c0: 80d9 15bc 0843 d53d 1e75 bebd e881 ca3d
000002d0: 408e a53d 9fbd 023e 8250 c03d 120f 25bf
000002e0: c880 303c 8ab3 2d3e c99e da3c 96cb 16bf
000002f0: 41d7 7cbd 6854 77bd 4161 983d 66ac 30bf
00000300: de9b f93d ac46 a23e e26f 2bbe 61a0 6cbe
00000310: ced8 7f3e 28c4 583e ee9a c73e 2cb2 bebd
00000320: fce5 0fbe 1189 1f3e 45b6 583e 624e 0a3d
00000330: 8407 f5bc 086b e5bc fd92 0cbe 8afe 06bf
00000340: bf1c 63be c1c8 393e 9847 22bf bb25 43be
00000350: 1ab6 efbb c764 85bd 0d62 b63d 2f9c 603e
00000360: 3739 033e 6067 d73d 8a93 a8be 5a54 48bd
00000370: 1845 e43d abce b63d 7e3b 1d3e 00ae 70be
00000380: 531e fbbc 176d c93e c211 4f3d 9de8 99bc
00000390: 6ec8 40bd e428 f3be a8f0 91bd fbc3 49be
000003a0: 9cfe bb3d 35a5 cbbd 9d14 e0bd 831c c8be
000003b0: 9b62 1c3d 75fb f93d 0488 e0be c1de 63be
000003c0: 16b1 1c3e b123 09bf 39c3 bdbe c201 383d
000003d0: e8e6 6b3e 79fa 6f3d fc12 03bf c071 9a3d
000003e0: 608b 0bbe dfde eabd 39c2 92be d17f 6abf
000003f0: 7350 88be 289e 7c3e 8938 e6be 6a3b 61be

fc2.bias f4 [64]
-0.0010343052 0.00026756228 -0.00057292666 -0.0010643158 -0.00015055579 0.00071466865 -0.0002779559 -0.0005327614
-0.00043145163 0.00011184792 0.00023185807 -0.0013738349 -6.7419234e-05 0.00095591065 -0.00030568638 -0.0007298413
-0.0007154199 -1.6177066e-05 -0.0013379112 0.0008497212 0.0002854376 0.0016729997 -0.001021172 -0.00025341232
0.00024052091 3.697723e-05 -0.0010080371 -0.0017689144 -0.0001732323 -0.0002872573 0.0011553402 0.00044276178
-0.00043158376 -0.00073086075 4.056894e-05 0.0014248891 -0.0008768251 0.0011996494 -0.000114273455 0.00069382373
0.0005443825 0.00023362355 0.00054041843 -0.0008093547 0.0006568113 0.0012421156 -0.0008031494 0.002144313
0.00039054736 -0.0012773473 -0.00074185315 0.0009488606 -0.00010680196 -0.0011028276 -0.0006637616 -0.0010186498
0.0012201174 -0.0015139817 0.00027963603 0.00080059207 -0.0006823995 -0.00046117228 -0.00025720533 -0.0009410705
00000000: 8691 87ba 9a47 8c39 7530 16ba 8380 8bba
00000010: 83de 1db9 9a58 3b3a 9cba 91b9 03a9 0bba
00000020: 7534 e2b9 e58f ea38 ed1e 7339 4012 b4ba
00000030: 6d63 8db8 1496 7a3a 8844 a0b9 d252 3fba
00000040: 048b 3bba fcb3 87b7 da5c afba d3bf 5e3a
00000050: c9a6 9539 8e48 db3a d9d8 85ba 6ddc 84b9
00000060: 5734 7c39 0018 1b38 1d20 84ba ebda e7ba
00000070: b1a5 35b9 069b 96b9 c96e 973a 7b22 e839
00000080: 3146 e2b9 3c97 3fba 9128 2a38 58c3 ba3a
00000090: bdda 65ba 8e3d 9d3a 18a6 efb8 b9e1 353a
000000a0: e4b4 0e3a d8f8 7439 deaa 0d3a e02a 54ba
000000b0: dc2d 2c3a 7cce a23a 728a 52ba 9a87 0c3b
000000c0: 61c2 cc39 aa6c a7ba ec78 42ba f5bc 783a
000000d0: defa dfb8 c18c 90ba 4900 2eba 3784 85ba
000000e0: 59ec 9f3a cc70 c6ba 1d9c 9239 d3de 513a
000000f0: 0ee3 32ba 7fc9 f1b9 84d9 86b9 2cb2 76ba

bn2.weight f4 [64]
0.5062054 0.5430441 1.1154158 0.4396969 1.2265112 1.169633 0.5981249 1.3622005
1.255747 0.36199346 1.2231364 0.5447964 1.2824829 1.2968802 0.49599618 1.1779308
0.3505812 1.2628353 0.5882987 0.371306 1.1384625 1.146173 1.5783012 0.8797613
1.5360495 1.2305622 0.681604 0.61870176 0.88233614 1.1207825 0.6531445 1.1032524
0.6560236 1.094194 1.0355748 1.5524566 0.88998437 0.47412503 1.1759206 0.7107132
1.4407424 0.48263338 0.5385152 1.3727646 1.368901 0.45354033 0.4844471 0.5235472
0.5344573 0.60358757 0.49701512 0.8719044 1.0020969 1.3168681 0.65409976 0.42198655
0.5167373 1.262587 1.1939172 1.2057786 1.2494386 1.1384568 2.168049 0.6795072
00000000: ad96 013f f004 0b3f f2c5 8e3f f41f e13e
00000010: 52fe 9c3f 89b6 953f b71e 193f 965c ae3f
00000020: 51bc a03f 3557 b93e bc8f 9c3f c777 0b3f
00000030: 6628 a43f 2c00 a63f 36f3 fd3e 70c6 963f
00000040: 617f b33e 96a4 a13f be9a 163f d21b be3e
00000050: 24b9 913f ccb5 923f c605 ca3f 0938 613f
00000060: 459d c43f 1083 9d3f 9a7d 2e3f 3d63 1e3f
00000070: c8e0 613f cd75 8f3f 7a34 273f 6037 8d3f
00000080: 2af1 273f 8d0e 8c3f b78d 843f e6b6 c63f
00000090: 04d6 633f 84c0 f23e 9184 963f 4df1 353f
000000a0: 3f6a b83f b91b f73e 22dc 093f c0b6 af3f
000000b0: 2638 af3f 7036 e83e 7309 f83e 3007 063f
000000c0: 32d2 083f b784 1a3f c478 fe3e 2035 5f3f
000000d0: b644 803f 228f a83f 1573 273f 9f0e d83e
000000e0: e548 043f 739c a13f 47d2 983f f456 9a3f
000000f0: 9bed 9f3f f4b8 913f 51c1 0a40 2ff4 2d3f

bn2.bias f4 [64]
-0.14499047 -0.32181054 0.013171504 -0.14536065 -0.15049939 -0.1982214 -0.27190349 -0.34332737
-0.07237701 -0.18672527 -0.5381926 -0.34852552 -0.5673423 -0.5797376 -0.2817246 -0.072617754
-0.17643602 -0.4462319 0.08500902 0.0037356243 -0.032120153 -0.014876891 -0.57047147 -0.24230742
-0.53518504 -0.21572131 -0.26568618 -0.2348365 -0.33528802 -0.764875 -0.22841491 -0.22910088
-0.24036801 -0.39443898 -0.025430901 -0.394672 0.31940913 -0.16732848 -0.053513084 -0.16494104
-0.4614949 -0.10446248 -0.34675103 -0.52606523 -0.54021704 -0.39159632 -0.42938566 -0.06315077
-0.3136179 -0.12115913 -0.1769131 -0.0052025556 -0.048877332 -0.47139427 -0.24020894 -0.33211347
-0.2108568 -0.3916476 -0.5132963 -0.20597164 -0.18638355 -0.077491835 -0.054617308 -0.113429666
00000000: 6278 14be 5ac4 a4be 4bcd 573c 6cd9 14be
00000010: 831c 1abe 8dfa 4abe ef36 8bbe 9bc8 afbe
00000020: 663a 94bd e934 3fbe fdc6 09bf f071 b2be
00000030: 583d 11bf af69 14bf 353e 90be 9eb8 94bd
00000040: a5ab 34be 8278 e4be 3619 ae3d 60d1 743b
00000050: 6c90 03bd 34be 73bc 6b0a 12bf 701f 78be
00000060: e301 09bf 0ce6 5cbe 0508 88be fb78 70be
00000070: dfaa abbe d9ce 43bf 99e5 69be 6c99 6abe
00000080: 0823 76be e8f3 c9be 7754 d0bc 7312 cabe
00000090: 9889 a33e 2858 2bbe 8930 5bbd 4ee6 28be
000000a0: 0f49 ecbe 6df0 d5bd 5a89 b1be 36ac 06bf
000000b0: aa4b 0abf 507f c8be 70d8 dbbe 3155 81bd
000000c0: 8692 a0be 4722 f8bd b528 35be 337a aabb
000000d0: 9933 48bd 975a f1be 55f9 75be c70a aabe
000000e0: d8ea 57be 0986 c8be 6367 03bf 3bea 52be
000000f0: 54db 3ebe 0ab4 9ebd 66b6 5fbd d04d e8bd

bn2.running_mean f4 [64]
-1.7387315 -2.2671993 -4.077235 0.5214138 -4.379319 -2.335635 -2.8649 -2.5679128
-3.6632874 0.3822061 -5.1036534 -2.0970745 -5.676534 -5.426245 0.045289673 -4.2617593
0.25163123 -6.121047 -3.2763968 -1.6305435 -4.088527 -3.7369308 -2.8693402 -5.050973
-2.9250774 -4.733311 -2.0488386 -1.2436483 -2.41979 -5.013294 -2.165818 -3.413983
-3.4877143 -1.9160432 -3.6436324 -2.6629806 -3.3759506 -1.21733 -3.651902 -2.9783196
-3.0179186 -0.047484614 -1.3023467 -4.7188563 -2.976828 -0.10487832 -0.16317728 -1.5063401
0.7491726 -1.6696672 -0.7426937 -4.479592 2.5745173 -3.7005148 -3.8279958 -0.15860105
0.1549814 -2.8703225 -2.8004868 -4.190587 -4.470656 -4.1583457 -1.1848392 -4.0283046
00000000: c18e debf cb19 11c0 b678 82c0 607b 053f
00000010: 6223 8cc0 0b7b 15c0 865a 37c0 af58 24c0
00000020: 4d73 6ac0 85b0 c33e 2151 a3c0 7836 06c0
00000030: 2ba6 b5c0 cda3 adc0 aa81 393d 5560 88c0
00000040: cfd5 803e 9edf c3c0 7cb0 51c0 a6b5 d0bf
00000050: 37d5 82c0 e029 6fc0 45a3 37c0 92a1 a1c0
00000060: 7834 3bc0 4977 97c0 2c20 03c0 de2f 9fbf
00000070: d7dd 1ac0 e86c a0c0 c39c 0ac0 b37e 5ac0
00000080: b636 5fc0 e740 f5bf 4631 69c0 466e 2ac0
00000090: 930f 58c0 78d1 9bbf c3b8 69c0 ca9c 3ec0
000000a0: 9425 41c0 3a7f 42bd 4cb3 a6bf df00 97c0
000000b0: 5a84 3ec0 72ca d6bd f217 27be c1cf c0bf
000000c0: c7c9 3f3f a8b7 d5bf 2d21 3ebf d158 8fc0
000000d0: e4c4 2440 3cd5 6cc0 e2fd 74c0 5068 22be
000000e0: 72b3 1e3e 5db3 37c0 2d3b 33c0 4a19 86c0
000000f0: 9d0f 8fc0 2b11 85c0 d0a8 97bf dfe7 80c0

bn2.running_var f4 [64]
11.745762 21.380259 42.7309 22.979675 62.49032 46.17714 13.583965 30.637102
41.330402 20.76181 57.323975 18.551687 78.674706 73.851685 25.719208 46.42744
16.89327 63.94454 11.7905445 14.711501 46.55654 47.98851 43.992996 18.594257
36.88102 56.1327 13.518535 19.405197 17.455818 53.178226 17.79275 28.904762
27.137844 15.484388 45.930294 18.444353 20.749975 14.006977 44.53707 33.251675
55.152657 13.286179 16.815386 63.123444 47.54657 25.293486 20.986662 24.51685
28.557684 24.979084 15.819024 13.083631 31.82779 54.02932 14.46147 12.861698
15.2211275 42.027107 16.72103 64.88868 64.15308 50.320072 8.881742 21.91927
00000000: a4ee 3b41 c50a ab41 71ec 2a42 60d6 b741
00000010: 16f6 7942 64b5 3842 ec57 5941 c918 f541
00000020: 5552 2542 3018 a641 c04b 6542 db69 9441
00000030: 7359 9d42 10b4 9342 f0c0 cd41 b3b5 3942
00000040: 6b25 8741 35c7 7f42 12a6 3c41 4f62 6b41
00000050: e639 3a42 3cf4 3f42 d4f8 2f42 0ac1 9441
00000060: 2a86 1342 e387 6042 eb4b 5841 d83d 9b41
00000070: 84a5 8b41 81b6 5442 8d57 8e41 f43c e741
00000080: 4e1a d941 0ec0 7741 9fb8 3742 098e 9341
00000090: f3ff a541 941c 6041 f625 3242 b701 0542
000000a0: 529c 5c42 3094 5441 e985 8641 687e 7c42
000000b0: b02f 3e42 0f59 ca41 afe4 a741 8222 c441
000000c0: 2376 e441 2ad5 c741 b91a 7d41 8d56 5141
000000d0: 509f fe41 061e 5842 2e62 6741 84c9 4d41
000000e0: bd89 7341 c21b 2842 abc4 8541 01c7 8142
000000f0: 614e 8042 c147 4942 9d1b 0e41 aa5a af41

fc3.weight f4 [32, 64]
0.20322783 0.2652995 -0.38945204 0.26585966 -0.40310982 -0.09031321 0.12986729 -0.4013729
-0.36576948 0.52201456 0.18386675 0.19910917 0.17689228 0.1920532 0.48995718 -0.4055802
0.25742498 -0.48082402 -0.007837401 0.2513562 -0.40697327 -0.36579093 0.051588334 -0.21812546
-0.3587578 -0.4173925 0.23677643 0.23231499 0.13455133 0.5570679 0.2363203 -0.11550161
0.23707548 -0.113896765 -0.44124514 -0.26108778 -0.05171934 0.3373484 -0.348769 0.264769
0.04004331 0.198788 0.28367567 0.013041836 0.017733917 0.3609328 0.48426253 0.27628914
0.41265872 0.14715578 0.30138662 -0.11352703 -0.049932837 0.051032495 -0.028374683 0.27608725
0.40316936 0.019196033 -0.0017389393 -0.4726916 -0.45645565 -0.41214404 0.0075848047 0.10933083
-0.3723188 -0.37028828 -0.13885169 -0.3607729 -0.23814817 -0.15306263 -0.019285195 0.016679209
0.015022558 -0.32257143 0.15481432 -0.15174055 -0.25271523 0.07333184 -0.45057338 0.08758114
0.073748544 -0.11410302 -0.12810935 0.037574343 0.0068292283 -0.02200785 0.07276295 -0.36738703
-0.11325165 -0.09350404 0.1286529 -0.17610754 0.030119065 -0.24736732 -0.25565818 0.15112521
-0.30802342 0.14228058 -0.005833004 -0.07768486 -0.14186397 -0.49637064 0.0034893898 0.016768426
-0.018118622 -0.050944544 -0.413539 0.06718754 0.05811593 -0.35816395 -0.21745607 -0.37813696
-0.31481862 -0.08685178 -0.46944025 0.10231448 -0.16406679 -0.028183483 -0.17751363 0.05246737
-0.11417061 -0.039466288 -0.14079915 -0.0750769 -0.0791107 0.01663962 0.08877202 -0.30272475
0.31560645 -0.30762216 0.33001375 -0.07475794 0.2911903 0.1393438 -0.26696402 0.5252848
0.29964122 -0.34779713 0.33114833 -0.2302112 0.3016385 0.40304023 -0.058497734 0.24211495
-0.3435814 0.40550482 0.06542104 -0.07166865 0.21262132 0.21125259 -0.77953976 0.3266052
0.24331558 0.34663707 0.21929622 0.19264974 0.13742268 0.1576656 0.20997226 0.1852741
0.21471491 0.12074751 0.26852065 0.4921169 0.19824399 -0.044772156 0.24719757 -0.02005461
-0.1153526 0.26341468 -0.29597175 0.22035864 -0.4837481 -0.44392067 -0.4201275 -0.13899265
-0.3487252 -0.1365542 -0.011736608 0.35755947 -0.019554999 0.21059002 0.057757642 -0.46661896
-0.1360182 0.030326618 0.11497504 0.3632101 0.3315224 0.2060637 -0.08006078 0.3055838
0.1813506 0.23252395 -0.33706012 0.37235567 -0.44277093 -0.04412021 0.25416383 -0.3524619
-0.35379225 0.32747763 0.21261023 0.35464716 0.2783036 0.0937329 0.18161257 -0.37369895
0.3057675 -0.48682162 -0.021326525 0.30835426 -0.42187825 -0.36606348 0.064939454 -0.27205515
-0.32259643 -0.3667198 0.30582735 0.23344384 0.11882928 0.58106303 0.231546 -0.07218492
0.21040581 -0.17670947 -0.3921525 -0.23050386 -0.043513857 0.49896225 -0.3975861 0.28013647
0.0787883 0.20564131 0.40028644 0.04596834 0.014459069 0.36993513 0.4252216 0.26845965
0.24365942 0.29184195 0.38403368 -0.09942861 -0.07555861 0.07653154 0.053653616 0.39926356
0.26481315 -0.03224551 -0.068467125 -0.4517613 -0.42659572 -0.44507608 0.008523162 -0.013211269
00000000: f51a 503e 56d5 873e 4266 c7be c21e 883e
00000010: 6964 cebe 22f6 b8bd eefb 043e c080 cdbe
00000020: 2346 bbbe bfa2 053f 9147 3c3e 46e3 4b3e
00000030: 4023 353e 98a9 443e abdb fa3e 35a8 cfbe
00000040: 35cd 833e 912e f6be 7168 00bc c3b1 803e
00000050: cd5e d0be f348 bbbe 4a4e 533d 485c 5fbe
00000060: 1aaf b7be 78b4 d5be 8575 723e fbe3 6d3e
00000070: d3c7 093e 009c 0e3f f3fd 713e 1c8c ecbd
00000080: eac3 723e b542 e9bd e2ea e1be 4cad 85be
00000090: a9d7 53bd eeb8 ac3e da91 b2be cd8f 873e
000000a0: 7404 243d 158f 4b3e f03d 913e 6dad 553c
000000b0: b846 913c 2fcc b83e 42f1 f73e c575 8d3e
000000c0: 0148 d33e 01b0 163e 594f 9a3e dc80 e8bd
000000d0: 6086 4cbd 7307 513d 0672 e8bc 4f5b 8d3e
000000e0: 376c ce3e 0041 9d3c 1fed e3ba a204 f2be
000000f0: 8eb4 e9be 8b04 d3be f489 f83b d8e8 df3d
00000100: 92a0 bebe 6d96 bdbe 232f 0ebe 3ab7 b8be
00000110: 1ddd 73be 73bc 1cbe fcfb 9dbc d6a2 883c
00000120: 2d21 763c 1528 a5be a587 1e3e e061 1bbe
00000130: e463 81be 012f 963d 8eb1 e6be be5d b33d
00000140: 7a09 973d d8ae e9bd 192f 03be 8ee7 193d
00000150: b8c7 df3b cf49 b4bc be04 953d 271a bcbe
00000160: 7bf0 e7bd 0c7f bfbd 96bd 033e 8955 34be
00000170: 42bc f63c dc4d 7dbe a1e5 82be 91c0 1a3e
00000180: 3fb5 9dbe 00b2 113e c922 bfbb 3d19 9fbd
00000190: ca44 11be 4b24 febe 3fae 643b f05d 893c
000001a0: 816d 94bc 3aab 50bd 62bb d3be 9f99 893d
000001b0: f80a 6e3d 4461 b7be ceac 5ebe 2b9b c1be
000001c0: e82f a1be 59df b1bd 795a f0be 418a d13d
000001d0: 2001 28be 0ce1 e6bc 22c6 35be 06e8 563d
000001e0: 48d2 e9bd 67a7 21bd a72d 10be ebc1 99bd
000001f0: ca04 a2bd d04f 883c 1bce b53d bdfe 9abe
00000200: 2b97 a13e a780 9dbe 90f7 a83e b11a 99bd
00000210: e516 953e 24b0 0e3e 82af 88be 1179 063f
00000220: 936a 993e 7712 b2be 468c a93e 7cbc 6bbe
00000230: 5d70 9a3e 4a5b ce3e 529b 6fbd fbec 773e
00000240: e7e9 afbe 549e cf3e 77fb 853d 03c7 92bd
00000250: 67b9 593e 9952 583e eb8f 47bf cc38 a73e
00000260: b827 793e 6a7a b13e 308f 603e f945 453e
00000270: 88b8 0c3e 1773 213e f802 573e 7eb8 3d3e
00000280: 3ade 5b3e 784a f73d 8a7b 893e bff6 fb3e
00000290: 7900 4b3e 0263 37bd 5c21 7d3e 9149 a4bc
000002a0: fc3d ecbd 4ade 863e 9c89 97be b2a5 613e
000002b0: d5ad f7be 9249 e3be f41a d7be 1754 0ebe
000002c0: 1c8c b2be ddd4 0bbe e74a 40bc 0912 b73e
000002d0: ce31 a0bc e9a4 573e 4793 6c3d aee8 eebe
000002e0: 5b48 0bbe 876f f83c 0978 eb3d adf6 b93e
000002f0: 4ebd a93e 5d02 533e e8f6 a3bd 7b75 9c3e
00000300: f9b3 393e c21a 6e3e 2593 acbe 67a5 be3e
00000310: dfb2 e2be 65b7 34bd c321 823e e375 b4be
00000320: 4224 b5be 26ab a73e 7fb6 593e 5094 b53e
00000330: cf7d 8e3e 09f7 bf3d a5f8 393e 7855 bfbe
00000340: 8f8d 9c3e af40 f9be f7b4 aebc 9ce0 9d3e
00000350: 6d00 d8be ac6c bbbe fafe 843d d04a 8bbe
00000360: 5c2b a5be b3c2 bbbe 6795 9c3e e70b 6f3e
00000370: c45c f33d 8cc0 143f 651a 6d3e b0d5 93bd
00000380: 9f74 573e 54f3 34be 36c8 c8be 3409 6cbe
00000390: 963b 32bd fb77 ff3e 6890 cbbe 0c6e 8f3e
000003a0: c35b a13d a393 523e 58f2 cc3e 4c49 3c3d
000003b0: bbe5 6c3c 2368 bd3e a5b6 d93e 8b73 893e
000003c0: db81 793e 4f6c 953e 10a0 c43e 3aa1 cbbd
000003d0: 79be 9abd 91bc 9c3d e5c3 5b3d 466c cc3e
000003e0: 9795 873e de13 04bd 7e38 8cbd 424d e7be
000003f0: c16a dabe 03e1 e3be bca4 0b3c 1474 58bc

fc3.bias f4 [32]
0.0022823273 -0.0039086314 0.00022658806 -0.0031515146 0.00033673554 0.00016744556 -0.0010916902 -0.0002215142
-0.0010765436 -0.0014449935 0.0030877183 0.0031449175 0.0026220058 0.002565957 0.00023152935 -0.0018636752
-0.0022214754 -0.000837042 -5.514585e-06 -0.0022730748 0.00065184606 -0.0018509008 -0.00026350562 0.0005455643
-0.002371886 -0.0019641195 0.0018376779 0.0014563822 0.0038373384 -0.00056806486 -0.00034647013 0.0018531941
00000000: 1993 153b fa13 80bb 4598 6d39 a489 4ebb
00000010: e18b b039 5394 2f39 0b17 8fba 4446 68b9
00000020: cf1a 8dba f065 bdba 515b 4a3b f61a 4e3b
00000030: f5d5 2b3b 9d29 283b b0c6 7239 9046 f4ba
00000040: 2c96 11bb f06c 5bba ed09 b9b6 def7 14bb
00000050: a6e0 2a3a ed99 f2ba 2027 8ab9 3304 0f3a
00000060: a571 1bbb 75b8 00bb 3dde f03a 14e4 be3a
00000070: db7b 7b3b 30ea 14ba 6fa6 b5b9 e0e6 f23a

bn3.weight f4 [32]
0.44106296 0.26654068 0.3626388 0.4674454 0.50089496 0.5537554 0.49780875 0.58480567
0.44808167 0.7825336 0.54355997 0.58096194 0.59973544 0.59401315 0.44405454 0.6428853
0.4524997 0.54419357 0.5456146 0.5952702 0.5299081 0.4747222 0.60669464 0.36285946
0.57130677 0.4792271 0.35709277 0.64520675 0.7077472 0.48308244 0.25766733 0.5559803
00000000: 01d3 e13e 0578 883e cbab b93e 0155 ef3e
00000010: a73a 003f eac2 0d3f cae0 fe3e d3b5 153f
00000020: f66a e53e 1f54 483f bf26 0b3f ecb9 143f
00000030: 4388 193f 3f11 183f 1e5b e33e 2294 243f
00000040: 0aae e73e 4550 0b3f 66ad 0b3f a163 183f
00000050: 0fa8 073f ca0e f33e 5750 1b3f b7c8 b93e
00000060: 2941 123f 415d f53e ddd4 b63e 452c 253f
00000070: ec2e 353f 9556 f73e f9ec 833e ba54 0e3f

bn3.bias f4 [32]
0.009167886 -0.57393813 -0.70454246 0.015593088 -0.0058880593 -0.19616444 -0.17486256 -0.3787465
-0.98707414 -0.6190805 -0.1884739 -0.40700972 -0.4508391 -0.4636463 0.020035097 -0.45060304
-0.08754768 -0.17856814 0.0059691407 -0.2084241 -0.6137097 -0.1621909 -0.4178482 -0.7600488
-0.21953708 0.0066638757 -0.77668506 -0.5039373 -0.6955435 -0.18135676 -0.5421444 -0.42578673
00000000: e734 163c 9ced 12bf e55c 34bf 277a 7f3c
00000010: 9ff0 c0bb 55df 48be 2c0f 33be 10eb c1be
00000020: e4b0 7cbf 0f7c 1ebf 4dff 40be 9463 d0be
00000030: 62d4 e6be 0c63 edbe a520 a43c 71b5 e6be
00000040: 334c b3bd 91da 36be c898 c33b 216d 55be
00000050: 141c 1dbf 5f15 26be 33f0 d5be 8f92 42bf
00000060: 54ce 60be a45c da3b d5d4 46bf 0902 01bf
00000070: 240f 32bf 96b5 39be fac9 0abf b800 dabe

bn3.running_mean f4 [32]
-1.4394954 -1.0238609 1.8695848 -1.3644153 -1.867243 -2.6047235 -4.304664 -2.2836893
0.31466928 -2.3091059 -2.9794965 -3.111139 0.41710743 -0.42243177 -1.3003228 -2.553495
-2.6299775 -2.8712351 -1.7287748 -2.3604863 -2.0376315 -3.0108604 -2.775074 0.22289534
-2.3416824 -1.52414 0.8105697 -0.2239844 -1.8215103 -4.431491 -0.5171007 0.14957264
00000000: 6341 b8bf e00d 83bf 8e4e ef3f 29a5 aebf
00000010: d201 efbf cab3 26c0 cfbf 89c0 f727 12c0
00000020: 551c a13e 64c8 13c0 12b0 3ec0 e71c 47c0
00000030: 1b8f d53e fa48 d8be fa70 a6bf 766c 23c0
00000040: 8d51 28c0 51c2 37c0 7e48 ddbf 3512 17c0
00000050: 8e68 02c0 f0b1 40c0 d09a 31c0 ad3e 643e
00000060: 20de 15c0 0517 c3bf 7f81 4f3f 2b5c 65be
00000070: 4027 e9bf c6ce 8dc0 b660 04bf 9229 193e

bn3.running_var f4 [32]
8.610802 1.8106792 5.0899415 8.406131 9.790869 5.67941 14.1529875 3.533542
3.5755038 6.2911563 7.1736684 5.138206 7.080881 7.4455104 8.516751 5.7573895
8.552484 7.2814336 9.952623 7.26091 3.3245623 7.3572154 6.038182 5.071218
6.533389 8.866151 4.801302 7.4032726 9.576925 13.985987 0.8909096 7.7095594
00000000: d8c5 0941 56c4 e73f cde0 a240 837f 0641
00000010: 66a7 1c41 babd b540 a372 6241 8d25 6240
00000020: 0ed5 6440 2751 c940 b18e e540 2f6c a440
00000030: 9496 e240 9f41 ee40 9d44 0841 893c b840
00000040: f9d6 0841 8101 e940 f23d 1f41 6059 e840
00000050: a1c5 5440 4f6e eb40 c938 c140 6b47 a240
00000060: 8611 d140 c1db 0d41 44a4 9940 9ce7 ec40
00000070: 163b 1941 9ac6 5f41 a712 643f b6b4 f640

fc4.weight f4 [1, 32]
-0.062308606 -0.00045726303 -0.111945234 -0.05551137 -0.05116562 -0.06136092 -0.07000745 -0.13860002
0.29178467 -0.45418558 -0.06373489 -0.14278162 0.0896172 0.114174776 -0.05962408 -0.23109841
-0.0653005 -0.071980916 -0.05393776 -0.07174342 -0.11640456 -0.08770404 -0.21426955 -0.30521724
-0.072322085 -0.04999688 -0.15336047 0.09781388 0.18765041 -0.0770344 0.004518472 0.097531095
00000000: 4f37 7fbd cebc efb9 8b43 e5bd e45f 63bd
00000010: 0b93 51bd 9755 7bbd 1160 8fbd 2aed 0dbe
00000020: cd64 953e 038b e8be 7087 82bd 5835 12be
00000030: 3989 b73d 77d4 e93d 6138 74bd 10a5 6cbe
00000040: 45bc 85bd bb6a 93bd d7ed 5cbd 37ee 92bd
00000050: 8465 eebd 2d9e b3bd 7a69 5bbe 6f45 9cbe
00000060: 9a1d 94bd 87c9 4cbd 870a 1dbe a552 c83d
00000070: 6e27 403e 36c4 9dbd b10f 943b 62be c73d
